ml_autoencoder.pth (torch, 899651 bytes, 18 tensors)

encoder.0.weight f4 [128, 784]
000000 39 c3 bc bc 49 34 77 bb 62 0e 55 bd 64 1e 48 bd
       -0.023042308 -0.0037720373 -0.05201567 -0.048857108
000010 b5 ee 10 bd 17 6a 4a bc 92 bf ba bc e1 9a fc 3b
       -0.0353839 -0.012354395 -0.022796426 0.0077088927
000020 d8 94 aa bc 88 7e 1a bc 01 76 04 bd 35 0f 07 bd
       -0.020822927 -0.009429581 -0.0323391 -0.032973487
000030 d2 93 71 bd c5 4e 39 bd 27 9c 02 bd 64 30 5b bc
       -0.058978863 -0.045241136 -0.0318872 -0.013378236
000040 f0 25 e3 b9 c4 19 5a 3c 04 60 dd bc 64 86 95 bc
       -0.0004332508 0.013311807 -0.027023323 -0.018252559
000050 6b 93 74 3b 2d d4 8c 3c f7 47 82 bc f0 68 52 3c
       0.0037319313 0.017191017 -0.015903456 0.012842402
000060 b2 e9 ae bc 7f 0f 7f bc 6c e3 28 3c 85 a4 63 bd
       -0.021351669 -0.015567659 0.010308128 -0.05557682
000070 2a d1 38 bd 93 24 02 bd b1 e8 15 bd 28 5e 04 3c
       -0.04512135 -0.03177316 -0.036598865 0.008079089
000080 26 52 2d bd 51 d3 07 bd 4d 3b 22 bd 11 6c 3b bd
       -0.04231467 -0.03316051 -0.039607335 -0.045757357
000090 4a 2b ed bc 72 3b 87 3c 1d 18 2a 3b 69 da aa bb
       -0.028951306 0.016507838 0.0025954314 -0.005214025
0000a0 22 4f bb bc f7 89 1f bd d1 b6 69 bc 9e 2f 27 bd
       -0.022864882 -0.038949933 -0.014264778 -0.040816896
0000b0 ca ee 05 bd 7a 1f b8 bc 45 1d a7 3c 81 c1 9f 3c
       -0.03269843 -0.022475947 0.020399699 0.01950145
0000c0 82 e8 c2 bc 86 a4 56 bc 02 b2 35 3c 2a 55 c1 3c
       -0.023792509 -0.013100749 0.011089804 0.02360018
0000d0 ad bb 99 3a 03 3a 47 bc ce d5 4f 3b 66 b9 31 bd
       0.0011728905 -0.012159827 0.003171313 -0.0433897
0000e0 f7 76 84 bc dd ee 4d bd 35 8c 40 bd b5 c5 21 bd
       -0.016170008 -0.050276626 -0.04700871 -0.03949519
0000f0 9d 86 34 ba 95 18 6b 3b 96 58 02 bd 9c b7 a8 3b
       -0.0006886514 0.0035872806 -0.031822763 0.005148841
000100 ff b7 47 3c a1 e8 a1 bc 83 05 9c bc b2 ce 89 bc
       0.012189864 -0.019764246 -0.019045597 -0.016822193
000110 9e 57 0e 3b 6a ec 80 3c 3c d5 fc bc 29 89 ab bb
       0.0021719704 0.015737731 -0.030863397 -0.0052348566
000120 bb 93 c7 3c 8a c0 16 3d 0d 88 17 3d f8 90 1e 3d
       0.024362436 0.036804713 0.036994983 0.03871247
000130 9b 9b 7a 3b 50 37 26 bd f3 d2 24 bc 95 dc 16 bd
       0.003823972 -0.040580094 -0.01006006 -0.036831457
000140 bb d0 3b bd fa 0b 77 3c 6f 9f d0 3b c8 e6 6c bd
       -0.045853358 0.015078539 0.006366662 -0.057837278
000150 f0 5d 84 bc f0 50 eb bc 60 d8 e1 bc 2a 1a 11 bd
       -0.016158074 -0.028725117 -0.027568996 -0.035425343
000160 1d 5f 96 b7 2e 0b dd bc a9 8a fa 3b 4e 4b 11 3c
       -1.7925684e-05 -0.02698287 0.007645924 0.008868052
000170 7c 60 25 3c 02 52 29 3b 22 37 48 bd 2b a3 25 bd
       0.010093804 0.0025836234 -0.048880704 -0.040438812
000180 ae 3e c4 3b 32 72 a0 3c d4 ae b5 ba 07 8d a5 3b
       0.0059889173 0.019585703 -0.0013861307 0.005052212
000190 31 4d 82 3d 13 d0 0f 3d 86 0a 1f bc 54 79 86 ba
       0.06362379 0.035110544 -0.009707099 -0.0010259547
0001a0 dc f4 00 bd 43 9b 9e bb 5d cf 39 bd 16 89 37 bd
       -0.031483516 -0.004840286 -0.045363773 -0.04480847
0001b0 d2 af 6b bc c3 0e 1b bc 96 1d 09 bd 04 6f 8c ba
       -0.014385181 -0.009463969 -0.03347548 -0.0010714238
0001c0 e9 0e 36 bd ea 8f 1c 3c ee 28 5d 3b 99 9c 3d bd
       -0.044447813 0.009555796 0.003374632 -0.04629192
0001d0 4a 2c b0 bc d8 9d 9c bb 6b 5e 0b 3b eb ea ee 3b
       -0.021505494 -0.0047795586 0.0021265994 0.007291188
0001e0 d2 ef 4e 3c da 0d aa bb a4 25 f3 bc d1 06 f8 3b
       0.01263042 -0.0051896395 -0.029681034 0.007569172
0001f0 45 22 d5 bc a9 d4 21 3c bc f3 13 3d 3d 1c 06 3c
       -0.026017318 0.009877362 0.036121115 0.0081854435
000200 6f 3f 04 ba 42 e4 91 bc 3c b2 f4 3a 29 00 af 3c
       -0.0005044853 -0.017809037 0.0018668841 0.021362381
000210 19 db 4e bc c9 42 31 bb 0c c0 77 3c b0 83 8e bc
       -0.012625479 -0.0027047864 0.015121471 -0.017396778
000220 ee d1 1e bc 97 5e 6b bc 6a c7 0e bc 72 dc 9f 3a
       -0.009693606 -0.014365814 -0.008714536 0.0012196435
000230 5b 28 2f 3c bf b4 c2 b8 e2 1a 55 3c b4 e5 9c bc
       0.010690774 -9.2843075e-05 0.013006898 -0.0191525
000240 8d ad 2d bd f1 a5 9d bc cc c8 f9 3c 0a ba bb 3b
       -0.04240184 -0.019244166 0.030491255 0.0057289647
000250 2d 8f 19 bc 91 68 c3 bc e4 31 c0 bc fa bc b1 bc
       -0.009372515 -0.023853572 -0.02346129 -0.021696556
000260 17 e2 a9 3b 68 54 0d 3d bb 7f 30 3d 5b 6b 00 bd
       0.0051844227 0.034504324 0.043090563 -0.031352382
000270 b0 ca 8f 3c 15 b0 ad bc d9 f9 ba 39 c0 62 b4 ba
       0.017552704 -0.021202127 0.00035662836 -0.001376234
000280 f2 6a 63 3b e3 17 d4 bb 75 1d 24 bd 22 8e 21 bd
       0.0034701196 -0.006472574 -0.040067155 -0.03944219
000290 85 a5 81 bc be 38 20 bc 29 95 f3 bc 3b 2d e6 bb
       -0.015825996 -0.009779153 -0.029734211 -0.007024435
0002a0 6b 98 60 bd 5f f0 cd bc 5f bc 39 3c 2b 2c d5 bc
       -0.054832857 -0.025139032 0.011336415 -0.026022037
0002b0 5f 42 bd 3c 8b 34 4b 3c 27 b4 b4 bc dc a6 e5 3c
       0.023102937 0.012402664 -0.02205856 0.028033666
0002c0 79 87 19 3b ae 85 54 bb 45 fb 23 3d 6f 0d b8 bc
       0.0023426695 -0.0032428312 0.04003455 -0.022467343
0002d0 51 a2 8e 3c af a9 7e 3c b5 6e 37 3d 5b 02 46 3c
       0.017411383 0.015543385 0.044783313 0.0120855225
0002e0 6f 1b 09 3c ab 72 58 3c 52 14 80 ba cb b3 8c 3c
       0.008368357 0.013210933 -0.0009771681 0.017175576
0002f0 23 93 67 bc f8 ce a8 3c 72 66 c6 3c 45 9d 4d 3c
       -0.014134201 0.020606503 0.024218772 0.012549703
000300 f0 64 11 bd fb 29 49 bc d6 44 23 bd 39 bf 20 bd
       -0.035496652 -0.012278075 -0.03986057 -0.039244864
000310 ff ca 32 bd f8 df 30 bc 94 3e 21 bd 6d 4e 13 bc
       -0.043650623 -0.010795586 -0.03936632 -0.008990866
000320 79 e5 9f 39 c8 96 fe 3c 95 55 5b bc c4 17 75 bc
       0.00030497814 0.031077757 -0.013387104 -0.014959279
000330 e6 af 8e bc c3 87 0c 3d 7f d4 de bb 49 c1 6e 3d
       -0.01741786 0.03430916 -0.006800234 0.0582898
000340 08 74 8c 3d 8b 99 24 3d 93 40 99 3c 33 9c 9c 3c
       0.06858069 0.040185492 0.01870755 0.01911745
000350 8d e0 ae 3c 49 fc 0a 3c 2b 13 35 3c 90 c5 c0 3c
       0.021347309 0.008483001 0.011051933 0.023531705
000360 0f 24 98 bc 2a 6d 93 bc aa f8 b4 3c d9 b4 18 bd
       -0.018571882 -0.01799639 0.022091229 -0.037281845
000370 1a bf 19 bc 93 d5 c0 3c 1c 88 6a bb ac a1 9f bc
       -0.009383941 0.02353934 -0.0035786694 -0.01948627
000380 77 e4 5b bd d0 cf a2 bb 52 b9 2e bd 06 6f 65 bc
       -0.053684678 -0.004968621 -0.042657204 -0.014003521
000390 de 16 5f bb 3b ad 1b 3c e3 bb 9a 3c 59 44 17 3d
       -0.003404073 0.009501751 0.01888842 0.036930416
0003a0 4c ff ea 3b 11 a0 23 3d 9c 78 73 3d 2a ba 06 3d
       0.007171547 0.039947573 0.059441194 0.032892384
0003b0 90 e1 a2 3d 16 12 e5 3c 04 1d b9 bb fe 01 b4 3c
       0.07953179 0.027962726 -0.005649211 0.021973606
0003c0 38 fb 34 3d ee 0a 4f 3d c1 31 c2 3c e8 dc f6 3c
       0.044184893 0.050547533 0.023705365 0.030134633
0003d0 c9 35 31 3d 71 0a b6 bc 12 ac b2 3c 6f f3 46 bd
       0.043264184 -0.022221776 0.021810565 -0.048572
0003e0 87 e8 6f bc 25 60 97 bc 79 a7 0b bd d7 96 75 bc
       -0.014642841 -0.018478462 -0.03409526 -0.014989576
0003f0 0b be d0 3b 65 ed 05 bd 0e 9b 1c bd fc 54 81 bc
       0.006370311 -0.0326971 -0.03823381 -0.015787594

encoder.0.bias f4 [128]
000000 6a 93 14 bc 29 12 c9 bc a8 a6 46 bc f1 5b a0 39
       -0.009068349 -0.024544792 -0.012124695 0.0003058608
000010 fe 69 da 3c 9e 53 1a 3c 7c f4 b4 bb f2 29 a9 3c
       0.02666187 0.00941935 -0.005522309 0.020649884
000020 ba 90 14 bb f3 1c 14 bd 73 51 98 ba aa 90 cf 3c
       -0.0022669272 -0.03616042 -0.0011620953 0.025337536
000030 d4 3a 4c bb e4 c0 41 3c 7d 95 af bc d1 0a 8e bb
       -0.0031162994 0.011825774 -0.021433586 -0.0043347855
000040 c9 21 54 bc eb 69 cb bb 18 28 85 3a bb be 9f 3c
       -0.012947508 -0.0062076948 0.0010159044 0.019500127
000050 a6 d8 e8 ba e5 c4 b6 bc 34 9c 05 bb 69 9c 62 3c
       -0.0017764762 -0.022310684 -0.0020387294 0.013831236
000060 c7 c9 a8 3c 4a 4f 41 bd fd 4e 55 3c b4 12 0c bc
       0.020604027 -0.047194757 0.013019321 -0.008549381
000070 10 80 10 3d 35 56 57 bc 2f e5 11 bd 0e dc e3 bb
       0.03527838 -0.013143112 -0.035618957 -0.006953723
000080 0a cf 28 3d 68 93 d1 bb 39 2e 35 3b 01 40 51 3d
       0.041213073 -0.006395746 0.002764596 0.05108643
000090 c8 45 8b bc ce 5b 1d bc 26 61 0b bd 5c bf 0c 3c
       -0.017001048 -0.0096044075 -0.034028195 0.0085905455
0000a0 fd 79 5b bc d9 0b 3d 3d 18 11 2e bc 48 86 bd bc
       -0.0133957835 0.046153877 -0.010624193 -0.02313532
0000b0 69 b1 68 3c c7 cd 03 3c 74 97 2d bd b2 5d 8c bc
       0.014202454 0.008044667 -0.042380765 -0.017134521
0000c0 e6 90 e9 bc b0 2a 15 3d 1f f6 be 3c ce 65 c0 bc
       -0.028511476 0.036417663 0.023310719 -0.023486044
0000d0 0c 43 fe bc 06 83 08 3d a3 7f d1 bc 27 c9 0e 3d
       -0.03103783 0.03332808 -0.025573557 0.034859803
0000e0 b0 5c 3d bd 4e 3b c1 bc 65 95 d1 bc de 11 97 bc
       -0.04623097 -0.023587849 -0.025583932 -0.018441137
0000f0 b6 95 93 3c f2 55 68 bd 33 ce d4 bc 36 f2 eb 3c
       0.018015724 -0.05672259 -0.02597723 0.028802019
000100 e3 43 13 bd f4 72 ba 3c 55 00 10 3c 0c a3 8c 3a
       -0.035953414 0.022759892 0.008789142 0.0010729744
000110 4b dd 79 3c 11 8e 8d bc ac da 91 39 73 c5 2c b5
       0.015250514 -0.017279657 0.00027819478 -6.436232e-07
000120 0c cc 02 3d 9d 56 1f 3d 11 cf 89 ba 4a 93 94 bc
       0.031932876 0.03890096 -0.0010513981 -0.01813664
000130 74 cf ba 3c f9 c2 6b 3b fc d9 f3 3c 0e 66 9f 3b
       0.022804 0.0035974367 0.029767029 0.004864461
000140 ac d7 35 3c a2 0d bb bb f1 54 3e bc 4e ad d8 3c
       0.011098783 -0.0057084123 -0.011616931 0.026449826
000150 5a 87 eb 3c 08 f9 b9 bc 3f 85 16 bd 46 32 b1 3b
       0.028751064 -0.022701755 -0.036748167 0.0054076044
000160 64 67 0e 3d 06 24 1a 3c 38 e2 55 bc 6e 57 80 3b
       0.03476657 0.009408003 -0.013054423 0.0039166724
000170 f8 11 0f bd c7 8f 1f 3d 06 fa ff bb 14 56 15 bb
       -0.034929246 0.038955476 -0.0078117875 -0.0022786902
000180 c5 9a 0c bc ff da c1 3a 66 30 fd bc 9a 22 0a bc
       -0.008581822 0.0014789997 -0.030906867 -0.008431101
000190 97 24 03 bd 2a 0f ee 3c 09 18 10 bc 52 78 8e b3
       -0.032017317 0.029059965 -0.008794793 -6.6342764e-08
0001a0 65 63 1a bc 7d 65 e8 3b de 91 c3 bc a8 21 9e 3a
       -0.009423112 0.0070921765 -0.023873266 0.0012064474
0001b0 d0 73 d6 3c 27 7a 68 3c d0 05 1d bd a4 e8 05 3d
       0.02617827 0.01418928 -0.03833562 0.032692567
0001c0 c8 fd b1 bb 89 ee c9 3b cf 3c f1 3c f8 d4 08 3d
       -0.0054318644 0.006162469 0.029447941 0.033406228
0001d0 8f 03 6f bc 80 9c 01 bd 3c 08 fc 3c b2 49 1a 3c
       -0.014588251 -0.03164339 0.030765645 0.009416984
0001e0 66 d1 2f ba 49 74 05 bd 74 3a 20 bd 8e 3f 26 3c
       -0.0006706923 -0.0325816 -0.039118245 0.010146989
0001f0 b6 a8 cb 3c ae 26 d3 3b 0c 3c e3 3b 2f ec 3b 3d
       0.024860721 0.00644382 0.0069346484 0.04587954

encoder.2.weight f4 [64, 128]
000000 c4 0b a8 bd 02 8e ac bd 90 b8 48 bd c8 f3 75 3d
       -0.08205369 -0.08425523 -0.049004138 0.06004694
000010 7f 07 30 bd 2c 43 31 bd ef fe 94 3c cd 85 e4 bd
       -0.0429759 -0.04327695 0.018187968 -0.11158333
000020 4b d7 2c 39 f3 c7 a0 bd 2e 0c d7 3d c1 84 1a be
       0.00016483401 -0.07850637 0.1050037 -0.15089704
000030 cd 8d d4 3c e4 7d f0 bd 3e af 01 be f1 d2 ca 3d
       0.025946522 -0.11742762 -0.12664506 0.09903515
000040 c6 36 43 3e a6 41 c5 3d 52 21 f2 bc 6e 9d 03 bd
       0.19063863 0.09631662 -0.029556904 -0.03213256
000050 43 6f 54 3a a0 32 46 bd d0 f0 84 3a 9f e2 a6 bb
       0.00081037375 -0.048388124 0.0010142568 -0.0050929333
000060 8f 1d bf 3d e3 aa 64 3d c8 7c 7d 3c d3 7f 76 bd
       0.0933181 0.055827033 0.015471645 -0.060180496
000070 a3 be fd 3c 65 3d 5e bd 3f 85 9c 3c 3c cf 37 3d
       0.030974692 -0.05425777 0.019106505 0.04487537
000080 00 31 01 3d 51 fd a7 3d 13 d0 50 bd 1e 39 e0 3d
       0.03154087 0.08202613 -0.050979685 0.10948394
000090 22 49 d6 bd 1c a8 13 bc 71 bb 22 bc 22 e3 4c 3d
       -0.10463168 -0.009012248 -0.009932385 0.0500213
0000a0 9f c4 78 3d 11 5a 9a 3d 12 7d 23 bd 2f 33 1b bd
       0.060734387 0.0753671 -0.0399142 -0.03789061
0000b0 30 81 45 3d c8 f9 64 3c ee 98 46 be 7e ab 28 3d
       0.048218906 0.013975568 -0.19394276 0.041179173
0000c0 93 1f ba 3d 38 ab ca bd 11 75 5f bd f5 bc 9a 3d
       0.090880536 -0.09895939 -0.054555003 0.07555572
0000d0 df 56 3b bd 7e b9 85 3d 9a 65 52 be d6 0d 0d bd
       -0.045737144 0.065295205 -0.2054657 -0.034437023
0000e0 c2 15 7a bd e9 19 dd bd ff ef 30 bd 3c 3b d6 3d
       -0.061055906 -0.107959576 -0.043197628 0.10460517
0000f0 59 96 b2 3d c7 e5 01 3b 2a b4 62 bd 95 02 9d be
       0.08720083 0.0019820796 -0.0553476 -0.30666032
000100 c0 62 04 3e 75 fb 85 3d 92 52 fe 3d e5 50 dd bc
       0.12928295 0.06542102 0.12418093 -0.027016113
000110 d6 2e 47 be 48 8d 55 bd b3 a9 01 3c 66 2b 80 ba
       -0.1945146 -0.05213669 0.007913995 -0.0009778559
000120 53 d2 d0 3d 0f 04 89 3d 96 46 99 3a 17 7f bf bb
       0.10196366 0.06690227 0.001169401 -0.0058440077
000130 d1 1e 97 3d 73 fe 08 3d 8c 89 82 3d 14 a3 e6 bd
       0.07378925 0.033445787 0.06373891 -0.112615734
000140 c8 05 19 3d a8 f8 72 3e 10 6a 25 3d de ba 22 bd
       0.03735903 0.23727667 0.040384352 -0.03972899
000150 14 c3 54 bd 08 27 0f 3d 42 69 7e 3c 99 f0 52 be
       -0.051943853 0.034949332 0.015528025 -0.20599593
000160 a8 d2 9d bd 09 94 b1 bc 6e a4 1a be e4 90 e2 3d
       -0.07706195 -0.021677034 -0.15101787 0.11062792
000170 2c 76 1f be 6a bf 93 3a 5d 59 a0 3d f0 50 26 3c
       -0.15572423 0.0011272256 0.07829545 0.010151133
000180 37 24 06 3c 6e d1 9d bc f1 fb 60 be 2a 35 dc 3d
       0.008187345 -0.019264903 -0.21971108 0.10752328
000190 9d c8 91 bd 97 a6 83 be c0 f5 78 bc 7e b1 cb 1b
       -0.07118342 -0.25713035 -0.01519531 3.3698235e-22
0001a0 01 e2 04 3e 1f aa 53 3d 5d ce eb 3c 69 dd 72 3d
       0.12976839 0.051675912 0.028784925 0.059293184
0001b0 37 a3 7e bc 5b 10 bc 3d 5b 5e e3 bc c8 52 b4 3d
       -0.015541843 0.09182807 -0.027754953 0.08804852
0001c0 8f 2f fd 3d df e7 1b be 35 c1 dd 3d 24 b9 9b bd
       0.12362587 -0.1522517 0.10827867 -0.07603672
0001d0 e6 55 c7 3d b8 68 08 bd 1e 66 0a be 81 47 f3 bd
       0.09733181 -0.033302993 -0.13515517 -0.11878873
0001e0 4c 9a 0b be 75 82 fe 3d a0 f1 47 be d6 57 97 bd
       -0.13633078 0.124272265 -0.19525766 -0.073898
0001f0 5e f0 8b 3d c0 37 1b be fa 6b 6e 3d 8b df b4 bd
       0.06832956 -0.15157986 0.058208443 -0.088317
000200 24 89 60 3d c3 83 8f 3d 39 99 9e 3d 73 09 92 3b
       0.054818287 0.070075534 0.07744069 0.004456693
000210 31 26 d5 bc a1 d2 ca 3c 7e 03 c4 bd 2b d3 be 3d
       -0.026019188 0.024758639 -0.095709786 0.09317621
000220 47 3e eb bb b9 35 e0 3d 95 4e 54 bd 45 8c 30 3e
       -0.007179055 0.10947747 -0.051832754 0.17241009
000230 8e 27 24 bd 7e 85 ce 3d db be b0 3d d0 df 77 bd
       -0.040076785 0.10084055 0.08630153 -0.06051618
000240 3e 70 34 be 8c a6 b1 3d 1b 1e c3 bd 6d 75 22 3d
       -0.17620942 0.086743444 -0.095272265 0.039662767
000250 cd 59 72 3a f1 7d 40 3e 87 86 7b ba e8 00 59 bd
       0.0009244949 0.18798043 -0.0009594936 -0.05297938
000260 77 9f 50 be 56 e9 75 3d 24 78 ad bd aa 72 d7 bc
       -0.20373331 0.06003698 -0.08470181 -0.026299793
000270 77 56 49 3c f2 33 3b be 80 cd 5d be f6 41 eb bc
       0.012288681 -0.18281534 -0.21660423 -0.028717976
000280 5b 9d 73 bd 61 ca 10 bd 4f 9b 84 bd 19 21 20 3d
       -0.059476238 -0.035349254 -0.06474935 0.039094064
000290 f7 95 18 bd 21 40 67 bd 7b 96 5f bd 5e cf 9e bc
       -0.037252393 -0.056457642 -0.05458687 -0.01938599
0002a0 f5 b3 8b bd dd 38 4b bc 46 0b ca bd f3 03 ef 3d
       -0.068214335 -0.012403694 -0.098654315 0.11670675
0002b0 b6 8c 58 bd ee 79 89 bc 8e 44 43 3e ae 75 65 bd
       -0.052868567 -0.016781773 0.1906912 -0.05602043
0002c0 36 db 92 bd 57 d7 a9 3d c0 0f 1e bc f4 26 14 3d
       -0.071707174 0.08293026 -0.00964731 0.03616996
0002d0 7b 38 45 bd 5b bf 11 be 61 cb 39 3d 4d f9 ef 3d
       -0.048149567 -0.14233153 0.045359973 0.11717472
0002e0 50 e6 10 bc 52 c2 1f 3e 12 d4 68 3d dc 2d 06 be
       -0.008843973 0.15601471 0.05684287 -0.13103431
0002f0 29 1d a3 bd 4d 5d c4 3d 07 8f 6d 3d 64 ec 34 3e
       -0.07964546 0.09588108 0.05799773 0.17668301
000300 67 fd 60 be 3c 52 32 bd e8 d2 3c be 80 cd b2 bc
       -0.21971665 -0.043535456 -0.1843983 -0.021826506
000310 4b 15 32 3e 79 e5 1c be 30 7d 40 bd 57 35 1a ba
       0.17390935 -0.15321912 -0.046994388 -0.0005882582
000320 65 25 dd bc 87 78 be 3c ee 55 d1 39 f6 87 45 bd
       -0.02699537 0.023250831 0.0003992761 -0.048225366
000330 2d 5e 65 3d b3 95 a9 bc b9 39 60 bd f9 60 b0 3d
       0.055998016 -0.020701265 -0.05474255 0.08612246
000340 33 39 07 be 76 7b 30 be b4 bb 8f 3d c0 6c f8 bd
       -0.13205414 -0.17234597 0.070182234 -0.121301174
000350 21 30 4a bd a2 13 a0 3d af ef 57 3e 64 fa 90 3d
       -0.049362306 0.07816245 0.21087526 0.07079008
000360 a6 ac d7 3d 3f 84 da 3c 35 90 3a bd eb 14 e4 bd
       0.10530977 0.026674388 -0.045547683 -0.11136802
000370 11 9e 12 3e 77 94 aa 3c d2 20 d9 bc ec 8e d7 bd
       0.1431811 0.020822747 -0.026504908 -0.10525307
000380 bc 79 f8 3c 75 8d 74 bd b1 75 0a 3e d9 34 44 be
       0.030331485 -0.059705216 0.13521458 -0.19160785
000390 b7 ff b6 3c 66 75 f2 3d a6 d7 0e bd ae 74 fd 02
       0.022338731 0.11838798 -0.034873627 3.724198e-37
0003a0 f4 8e 9f bd d0 46 62 3d bc b0 a7 bc 3d 4f 39 bd
       -0.07790938 0.055243313 -0.020470016 -0.045241583
0003b0 4b cb bd 3b 32 8e e1 3d 83 5e 97 3d 86 09 6f bd
       0.0057920567 0.1101345 0.073910736 -0.05835869
0003c0 ac c5 9b 3d 38 f9 ee 3d cc aa 10 be 7c 5e 86 3c
       0.07606062 0.116686285 -0.14127654 0.016402476
0003d0 07 b0 ea bd 74 72 b2 bd b4 ba 05 3e 8f 33 b4 bc
       -0.11459356 -0.087132365 0.13059503 -0.021997241
0003e0 72 bd 06 3e 17 18 e4 bd 9c 44 fa 3d 50 48 8f 3d
       0.13158205 -0.11137407 0.122201174 0.069962144
0003f0 0d 55 83 bd 7e 73 b5 bc 28 e1 de bd f9 07 46 3d
       -0.064127065 -0.022149798 -0.10882789 0.048347447

encoder.2.bias f4 [64]
000000 11 82 d4 3d 5a 1a cc 3d b8 1e 3a 3c 35 a5 0a 3d
       0.10376371 0.09965964 0.011359863 0.03384896
000010 9a 14 ac 3d e8 d6 82 bd 40 06 35 3d 8d 32 83 bd
       0.08402367 -0.06388646 0.044195414 -0.06406126
000020 b2 3e 2f 3b 06 21 1b bd 06 30 f3 3c 58 52 8f 3c
       0.002674025 -0.03787329 0.029685985 0.01749532
000030 64 85 6c bd 86 75 a2 bc 35 ef 6f bd ff bf 90 bb
       -0.0577444 -0.01983143 -0.058577735 -0.004417419
000040 9c 0a 1e bd 47 ff 11 bd 61 05 d2 bc f4 ba 4f bd
       -0.038584337 -0.035643842 -0.02563733 -0.0507154
000050 bc 1e a8 3c 72 0b 35 bd 6f a9 e7 bc 8a c1 80 bd
       0.020522468 -0.04420037 -0.028279034 -0.06286915
000060 82 6d e4 bb 62 4d 37 3c 71 e1 fa bb 0f 3f 96 3d
       -0.006971062 0.011187883 -0.0076562692 0.07336246
000070 c7 d6 ea bc 99 34 b8 3c b0 f9 c4 3d 48 2c c8 3d
       -0.028666867 0.022486018 0.096179366 0.09774071
000080 7d 33 5d bd 54 e8 88 bd f4 40 83 bc 92 02 58 bd
       -0.05400418 -0.06684938 -0.016022183 -0.052736826
000090 87 37 13 bd 6c 8e 42 bd 91 31 17 bd 2a 95 6d bd
       -0.035941627 -0.047499105 -0.036912505 -0.058003582
0000a0 31 ee 31 3d 74 1f 98 bd 3a 82 11 3c 84 49 6a 3d
       0.043440048 -0.07427874 0.008881146 0.057199016
0000b0 69 6f a9 3c 82 a1 b7 bd 30 7d 45 bd 94 30 9b 3d
       0.020683007 -0.08966352 -0.04821509 0.07577625
0000c0 0e 31 a4 3d c7 52 b1 b9 ee 58 9a 3a 5e e8 98 bd
       0.08017169 -0.00033821745 0.0011775771 -0.074661955
0000d0 4d e2 c9 3c f4 f8 b4 bd 26 19 d0 3d 84 da 64 3d
       0.024644041 -0.088365465 0.10161047 0.055872455
0000e0 77 27 07 3c 9e a9 13 3c c3 08 e7 3b e1 13 ca bd
       0.008249155 0.009012608 0.007050605 -0.09867073
0000f0 a8 a4 27 bc 03 0f 54 3d 20 79 9c 3d 16 82 09 3d
       -0.010232128 0.05177213 0.0764029 0.033571325

encoder.5.weight f4 [32, 64]
000000 ba 79 f1 bd 35 b5 89 3d 7d e4 61 3d a9 99 ad 3b
       -0.117907956 0.067240156 0.055149544 0.0052978587
000010 d7 39 4e 3d 52 0b 92 3e 49 fe 45 bd 01 fd 84 be
       0.05034813 0.28524262 -0.04833821 -0.25974277
000020 c4 a4 49 bd 70 0d 56 3e 94 37 31 3e cd b2 8f bd
       -0.0492294 0.20903563 0.17306358 -0.070165254
000030 84 60 01 3e 61 f1 86 3e 3a a0 41 3e 3c 22 45 be
       0.12634474 0.26356032 0.18908778 -0.1925134
000040 46 c2 29 3e 3d b2 53 3d d5 9c af 3d ad c0 34 3e
       0.16578016 0.051683653 0.08574835 0.17651625
000050 64 d5 e3 bd 4d d7 86 3d 60 5e f0 3d ca 66 8d be
       -0.111246854 0.06584034 0.117367506 -0.27617484
000060 a4 d1 19 3d db a0 6d be 1e 86 c1 bd 1d ba 2e 3c
       0.037553445 -0.23205893 -0.09449409 0.01066449
000070 f7 19 20 be a7 4d 28 3e 46 22 3e bc c5 e7 50 be
       -0.15634905 0.16435872 -0.011604851 -0.20400913
000080 1e ba b3 3d 68 28 be bb c8 dc bc 3d f5 6a 8e be
       0.087757334 -0.0058031566 0.09221798 -0.27815977
000090 c8 0f e9 3d 93 85 f7 3c 4f 4a 5d be 5e af 81 be
       0.11379963 0.03021506 -0.21610378 -0.25329107
0000a0 da 65 7e bd be 62 c0 3e cf b4 0c 3e b8 14 80 be
       -0.062108852 0.37575334 0.13740848 -0.25015807
0000b0 61 fb 28 3e d5 58 8e 3e 51 27 48 3e 88 b6 af bd
       0.16502143 0.27802148 0.19546248 -0.08579737
0000c0 69 3d bd 3d e3 7e d3 bd 86 19 24 bb 50 10 f6 bc
       0.09240229 -0.10326936 -0.0025039627 -0.030037075
0000d0 5e eb cd 3d 93 52 d1 3d 5d ae e1 3b d2 57 18 3e
       0.10054658 0.10220828 0.006887241 0.14877251
0000e0 b2 69 4d 3e 04 6e 66 3c 4e 96 14 be 3d db 35 3e
       0.20059851 0.014064316 -0.14510462 0.17759414
0000f0 47 6f 99 3e fd 97 b7 bc 78 f3 a8 bd a1 71 ac 3e
       0.2996771 -0.02241134 -0.08249563 0.33680442
000100 a4 2e a9 3d 32 fa b8 bc 35 e7 49 3c 7c b1 46 be
       0.08260849 -0.02258024 0.01232319 -0.19403642
000110 d1 aa fb 3d 72 2d 83 bd be 3b a8 3d 55 34 31 3e
       0.1228844 -0.064051524 0.0821452 0.1730512
000120 0f 59 08 3e e0 b9 82 3d 68 b9 72 3e 27 f5 51 3e
       0.13315223 0.06383109 0.2370354 0.20503674
000130 aa 0b 04 3e dd 4e a4 bd 95 88 4b be 65 85 1c 3c
       0.12895074 -0.080228545 -0.1987632 0.009553288
000140 4f 2d 3e be 7f 34 68 be 32 ee 84 3e 52 72 97 bc
       -0.18571971 -0.22676276 0.2596298 -0.01848713
000150 5a c8 23 bd 6d 37 f4 bd b9 0e ed bd db c4 cd 3d
       -0.039985992 -0.11924634 -0.11575074 0.10047313
000160 83 95 a5 bc 42 f0 97 3d c2 58 f7 bc 95 8c 69 3d
       -0.020212894 0.074188724 -0.03019369 0.057018835
000170 f6 08 cd bd 8c 80 a1 3d bc ae c4 3d a6 8d ab 3d
       -0.10011475 0.078858465 0.096036404 0.08376627
000180 a1 fa 66 be 2e 97 82 3d 63 f2 fc 3d eb d0 20 be
       -0.22556545 0.063764915 0.12350919 -0.15704696
000190 75 f2 91 3d eb 60 e8 bd 22 79 28 3e 48 5a de 3a
       0.07126323 -0.11346611 0.16452459 0.0016964162
0001a0 c3 bf a2 be 7e 3c d0 3d 15 6d a8 3d be 4d 66 bd
       -0.31786928 0.10167788 0.08223931 -0.056226484
0001b0 4b da 9c 3e d6 f6 aa 3d 5d 41 21 bd 00 2b 69 bc
       0.30635294 0.083478615 -0.039368976 -0.014231443
0001c0 b4 81 1a 3e b8 a6 bc bd 82 21 01 be d4 49 08 3e
       0.1508854 -0.092114866 -0.12610438 0.13309413
0001d0 28 6b 2c be 22 bc 3b be 02 fe 57 3e a0 fc 29 3e
       -0.16837752 -0.18333486 0.2109299 0.16600275
0001e0 18 b0 d4 3d 28 d7 b9 bd 37 51 30 be 6b 6e b5 3e
       0.1038515 -0.09074241 -0.17218481 0.35435805
0001f0 2b b8 e6 3d 50 58 aa be 23 90 2f 3e ff 4e 7b 3e
       0.11265596 -0.33270502 0.17144828 0.24541853
000200 05 d7 ac 3d 76 9e 07 be b0 4f 92 bc be d1 25 3d
       0.08439449 -0.13244042 -0.017860264 0.04048323
000210 f1 fc 4f 3d 17 11 7f 3a 50 a4 88 3d f2 a0 4f bd
       0.050778333 0.00097300246 0.06671965 -0.0506906
000220 9a 0c d4 bd ba c7 96 3e 5d 71 7d 3e fa 80 59 be
       -0.10353966 0.29449254 0.24750276 -0.21240607
000230 70 83 f9 3d 1f 62 40 3e 6e 5c af 3e e6 7a 47 be
       0.12183273 0.1878743 0.34250206 -0.19480476
000240 5a 60 46 3e c1 07 3a 3e 53 b9 ba bd e0 37 61 3e
       0.19372693 0.1816702 -0.09117379 0.21993971
000250 98 d3 02 bd 08 e5 ff bc 73 50 42 3e de 41 ba be
       -0.031940073 -0.03123714 0.18976001 -0.36378378
000260 3c cc c9 3d 54 84 2d 3c 0a c2 50 bd b5 59 5e 3d
       0.09853408 0.0105906315 -0.0509663 0.05428477
000270 89 88 dd bd f7 34 c6 3d f8 ca 7b 3d 71 2f 8f 3c
       -0.10817058 0.09678071 0.061472863 0.017478677
000280 09 2f 55 3e 04 c1 5f 3e 8b 1d 84 bd 44 e1 7e bd
       0.20818724 0.21850973 -0.064509474 -0.06222655
000290 91 15 9a bd e5 ae ae bd d8 a1 8b be 5f 3d 95 be
       -0.07523645 -0.08529452 -0.27271914 -0.29148385
0002a0 d8 e2 97 bd 17 6a fa 3d a3 11 b8 bc 48 d4 d9 3b
       -0.07416314 0.12227266 -0.022469347 0.0066476204
0002b0 dc 32 9b 3d d0 85 c0 3e 76 2b e7 3d 50 a6 28 be
       0.0757806 0.3760209 0.112875864 -0.16469693
0002c0 22 20 bf bd 94 6e 8e 3d 0b 22 dc bc 13 fd 2e be
       -0.09332301 0.06954685 -0.026871702 -0.17088728
0002d0 9f fa ab 3d f4 87 23 3e 3e 65 72 bd 9f de af bc
       0.083974116 0.15969831 -0.059178583 -0.021468459
0002e0 52 52 64 3e f9 a4 4d 3d da 91 01 bd fd db 64 be
       0.22297028 0.05020616 -0.031633236 -0.22349544
0002f0 7b db cf 3d e1 9e e5 3d 46 5b 71 be 51 6a f2 3d
       0.101492845 0.11211944 -0.23569974 0.118366845
000300 8c 71 99 be aa 94 95 3e fe 72 fd bc b2 2d 13 3d
       -0.29969442 0.29214984 -0.030938622 0.03593225
000310 7c a9 8c 3c 85 34 ad bd 12 8c 5c bd cf f8 6c bd
       0.01717066 -0.08457283 -0.05384452 -0.05785447
000320 07 41 02 be f6 9c b6 3d 63 30 39 be 98 12 b2 3c
       -0.12720118 0.08916657 -0.18084864 0.021737382
000330 e1 a1 1e 3e 29 41 08 be 29 cf a3 3d f4 29 89 3e
       0.1549144 -0.13306107 0.07998497 0.2678982
000340 85 b8 39 be 74 80 0b be 57 22 a8 3d 73 ef 65 bd
       -0.18136795 -0.1362322 0.08209675 -0.05613656
000350 14 8f bf be 10 38 5a 3e e7 65 57 3e 32 6f 4a 3e
       -0.37413847 0.21310449 0.21034966 0.1976898
000360 b5 45 04 3e 91 a2 73 bd 9b b0 12 be e1 36 1a bb
       0.12917216 -0.059481207 -0.14325182 -0.0023531246
000370 07 be b0 bd 58 5e 3f bc ff 5a 2e be a4 fa 47 bd
       -0.08629995 -0.011680208 -0.170269 -0.048823014
000380 40 9c 81 be bb fc cd bd 26 64 95 3e ba 5f fd 3d
       -0.25314522 -0.1005797 0.2917797 0.12371774
000390 d8 d1 8d 3c 7d 2f 09 3d e4 e6 be 3d ea c2 d6 3d
       0.017311975 0.033492554 0.09321383 0.10486396
0003a0 c0 12 ef bc 9a ba 69 3d 6f 57 00 be 70 aa 65 be
       -0.029183745 0.057062723 -0.12533353 -0.22428298
0003b0 b3 27 10 3e 4d 02 b7 bd 7b 93 b4 3d 2a 8d 41 be
       0.14077644 -0.08935986 0.08817192 -0.18901506
0003c0 b5 c7 46 3c 90 86 81 be 26 1b 27 3d 18 21 16 3e
       0.012132575 -0.25297976 0.040797375 0.14661062
0003d0 93 75 00 3e 56 38 b4 3c 03 e7 18 be 03 19 3f 3e
       0.12544851 0.02199952 -0.14931874 0.18661885
0003e0 27 18 68 3d 82 4b a9 3d 9a e1 08 3e 63 be 66 3e
       0.05666366 0.08266355 0.1336731 0.22533564
0003f0 e2 a0 25 3e 18 7e ad bc 1d 6b 18 be cd 6c d7 3d
       0.16174653 -0.02117829 -0.1488461 0.10518799

encoder.5.bias f4 [32]
000000 69 3a 11 bc 0d c3 26 3d 95 92 49 3c c4 31 e5 3d
       -0.008864024 0.04071336 0.012303014 0.11191133
000010 83 25 52 3d 3a 31 c9 3d 52 f1 22 3e 43 df fc 3d
       0.051305305 0.09823842 0.15912369 0.12347271
000020 7b 67 03 3e 41 6d 10 3e a5 d3 e3 3c 14 ba 4a bd
       0.12832443 0.14104177 0.02781088 -0.049493864
000030 14 05 e8 3d b0 f4 7f bd 1d b0 28 3d 3e c0 16 3e
       0.113290936 -0.06248921 0.04118358 0.14721772
000040 b4 5f 7d 3d cf 2f 00 3d 77 1c 01 3d 9d a5 87 3d
       0.061858848 0.031295594 0.031521287 0.06623385
000050 c5 44 17 3e a2 61 cd 3b b0 15 93 3b a4 2c 8d 3e
       0.14772327 0.0062677423 0.0044886693 0.2757312
000060 24 2a 24 3e be c4 10 3e 7a b4 04 3e f2 a7 34 3e
       0.160317 0.14137551 0.12959471 0.17642191
000070 28 ba 06 3e cd c7 b4 3c 15 47 88 3e 86 c1 b9 bd
       0.1315695 0.022067929 0.2661673 -0.09070115

encoder.8.weight f4 [12, 32]
000000 19 64 dd bd 4b 93 fb bd 7e b2 69 bd dd a5 82 3e
       -0.10810108 -0.12283953 -0.05705499 0.2551717
000010 09 6f 84 bd c6 77 aa be cc 96 8e 3e 28 2e 8e 3d
       -0.06466491 -0.33294505 0.27849424 0.06942397
000020 11 90 42 3e b6 fa 0a be 6b d0 0a bf 85 b2 72 bc
       0.1900027 -0.13572201 -0.5422427 -0.01481307
000030 7f 9f b3 3d 1d f8 8f 3d d9 b5 a0 bd ca 53 1b 3e
       0.08770656 0.07029746 -0.07847185 0.15168682
000040 aa db 63 3e c1 7c d9 3c f0 dd 4f 3d 5f 7c a4 3b
       0.22251764 0.026548745 0.050748765 0.005019709
000050 c8 43 49 bd c7 cd be 3d e3 1a 1c be 72 a6 b2 be
       -0.049136907 0.09316593 -0.15244631 -0.34892613
000060 0c d5 6a be e5 97 3a bd 52 dc 60 be ab f5 0c bd
       -0.22932833 -0.045555014 -0.21959046 -0.034413975
000070 e6 94 ec be 2e cd ff 3d e0 b8 7f bd 0a b3 18 3c
       -0.4620735 0.12490307 -0.06243217 0.00932003
000080 dc 00 92 bd 73 e4 ee 3d 24 da 12 3e 4e 3d f9 be
       -0.0712907 0.11664667 0.14341027 -0.48679584
000090 c4 eb 5d be f3 95 d0 3e 91 36 0b bf 2a 72 a7 3e
       -0.21671969 0.40739402 -0.54380137 0.32704288
0000a0 a7 6b c2 3b d0 0b 53 3e b0 bd be 3e 9a b9 61 be
       0.0059332433 0.20609975 0.37254095 -0.22043458
0000b0 4b a4 a8 3d bc 6d 62 be d3 68 82 3d a7 23 8c be
       0.082344614 -0.22112173 0.0636765 -0.2737095
0000c0 df ea 0b be e1 f9 5f be 8b fb 4d be e9 38 3d 3e
       -0.13663815 -0.21872665 -0.20115487 0.18478741
0000d0 ac 5f bc 3e 62 6c c4 3d 53 32 ea bd 7c 3b 8a 3e
       0.36791742 0.09590985 -0.1143538 0.26998508
0000e0 94 d4 ca 3e 15 ed 05 3e 4b 72 80 3e 03 f0 02 be
       0.3961531 0.13078721 0.250872 -0.1278687
0000f0 51 1b b6 3d a2 d0 54 be bb 93 d6 bd 7c e2 27 3e
       0.08891929 -0.20782712 -0.10477396 0.1639499
000100 05 7d 08 3e d4 f0 d4 3e b2 c8 d0 bd 84 3f b6 3d
       0.13328941 0.41589987 -0.101945296 0.088988334
000110 f4 c9 8a be 78 66 d3 bb ea 35 37 be 34 fb 06 be
       -0.27107203 -0.006451424 -0.1789166 -0.13181764
000120 87 60 55 bd 93 69 cd 3d 9a 8c 8b 3d e7 2a 77 bd
       -0.05209401 0.10029902 0.06813927 -0.06034365
000130 dc f8 98 3e ef 70 46 3e c4 83 c9 3b f3 5c 46 bd
       0.29877365 0.19379018 0.006149741 -0.048428487
000140 dd 17 40 3e 68 43 cb bd b6 b0 a8 bd 7c 59 a5 3e
       0.18759103 -0.09924966 -0.0823683 0.32294834
000150 98 26 97 3e 40 f7 68 be f8 38 04 bf 07 af 7d 3c
       0.29521632 -0.22750568 -0.5164943 0.015483624
000160 1d a9 39 be 9f 58 f4 3d 11 cd bb bd 59 1f 54 be
       -0.18130918 0.11930966 -0.09169973 -0.20715083
000170 fe a7 22 be f3 65 cc 3c fc 12 3d be 06 5b 62 bd
       -0.15884396 0.024950957 -0.18464273 -0.055262588
000180 e1 df 0a be be a0 83 be 70 07 d8 bd 23 94 6a be
       -0.13561966 -0.25708574 -0.105482936 -0.22908072
000190 65 3a d8 3e e0 e5 4b 3e 59 91 a1 bd 01 37 af 3c
       0.42232051 0.19911909 -0.07889051 0.021388533
0001a0 d0 5d 28 3d 3c b0 0c 3e 8c a9 8d 3e ab 63 74 3e
       0.04110509 0.13739103 0.27668417 0.23866145
0001b0 3f 22 92 be 93 86 88 3e 75 4f 50 be 2f 09 8f 3e
       -0.28541753 0.26665172 -0.2034281 0.27936694
0001c0 3f 03 ae be 8c 63 90 be 33 a3 56 be 09 d1 fe bd
       -0.33986852 -0.28200948 -0.20960693 -0.12442214
0001d0 51 50 26 bd 83 bb b0 bd c6 4c 8c 3e 3a 23 a2 3e
       -0.04060394 -0.08629515 0.27402323 0.316675
0001e0 c6 1b 4d bd 3e 41 e8 be f6 21 ba bd ac 61 16 3f
       -0.050075315 -0.45362276 -0.09088509 0.58742785
0001f0 b7 4d d5 3d 76 3e e0 3d 01 1e d7 bd 02 c6 50 3e
       0.104152136 0.109494135 -0.1050377 0.20388034
000200 87 a5 c0 3d 2f 0a 17 3e cf f7 3e 3e 62 40 54 3e
       0.09406572 0.14749978 0.18649219 0.20727685
000210 b7 41 fe 3d 27 30 1e be b2 86 63 3e dc 87 97 be
       0.12414878 -0.15448056 0.22219351 -0.2959584
000220 c6 4c 2e be e3 ce 8d be 48 b2 ba 3e af 40 9b 3d
       -0.17021474 -0.27696905 0.36464143 0.07580697
000230 e4 2f 34 be f9 ab 2c 3e 8a 08 6d be 7f fb 97 be
       -0.17596394 0.16862477 -0.23147789 -0.29684064
000240 26 cd 8a be b2 d1 3d 3e 9b 01 f6 3d 02 35 b9 bd
       -0.2710964 0.18537024 0.12012025 -0.090433136
000250 ed a6 29 3e 3d 54 30 3e 12 9c e2 bd cb 11 86 3e
       0.16567583 0.17219634 -0.11064924 0.2618545
000260 10 9f b2 bd 09 d0 df bd 66 6d 82 be 3a 6e 4a 3e
       -0.08721745 -0.109283514 -0.2547409 0.1976861
000270 56 7d a5 bd fd 49 9b bd 15 3b c2 be 0e 0b 37 bc
       -0.080805466 -0.075824715 -0.379357 -0.011172069
000280 29 d5 28 be 64 8d 30 3e 6e 1c 93 be 0f 20 86 3d
       -0.16487564 0.17241436 -0.28732628 0.065490834
000290 b0 c0 91 3c 1e 7e 17 be 5e e0 9f bd c8 88 d4 bd
       0.017792076 -0.14794204 -0.078064665 -0.103776515
0002a0 cb d1 40 3e c9 18 d0 3d 50 67 8b b9 d4 f6 7b 3e
       0.1883003 0.101609774 -0.0002658912 0.24605876
0002b0 42 1c 07 3d 91 dd b3 3e 88 5c 17 3c 54 9f 0b 3e
       0.032985933 0.3512998 0.00923837 0.13634998
0002c0 51 ca 74 bd ed 83 a5 3e da 57 25 3d 6b f9 8b 3e
       -0.059763256 0.32327214 0.040366985 0.27338728
0002d0 28 11 26 be b3 dd 67 be da 65 2e be fa 5d df bd
       -0.16217482 -0.22643165 -0.17031041 -0.109065965
0002e0 81 ea e3 bd c0 51 f0 3d c1 ec 3d be ad db 59 bd
       -0.111287124 0.117343426 -0.18547346 -0.053188015
0002f0 0f c5 5f be 23 5a fe 3d 69 8a 65 be 69 d2 54 be
       -0.21852516 0.12419536 -0.2241608 -0.2078339
000300 04 5f 18 bd e3 b1 6f 3e 07 26 be be 98 32 d3 3d
       -0.03719999 0.23407702 -0.37138388 0.10312384
000310 07 e0 95 be a8 f8 29 be 10 9f 7f 3e 27 e3 c7 be
       -0.29272482 -0.16598761 0.24963021 -0.3904049
000320 03 b1 80 bc be 82 b8 be 74 47 5e 3e 36 00 74 be
       -0.015709406 -0.36037248 0.21706945 -0.23828205
000330 d3 a7 96 3c 6e 28 59 be 34 1f c1 3e af 3a f0 3d
       0.018390572 -0.21206829 0.3771912 0.11729943
000340 1c 2a 65 bd 6a a8 65 bd de 36 0f 3e a3 25 21 3e
       -0.05594836 -0.056068815 0.13985774 0.15737014
000350 8c 61 c3 be 11 01 d3 be 45 bd 5f bb 76 cc 0c bd
       -0.3816036 -0.4121175 -0.0034139913 -0.034374677
000360 88 aa 00 3c 0b 03 21 3e f2 b3 c4 bc 79 96 f0 bd
       0.007853158 0.15723817 -0.024011586 -0.117474504
000370 0e 43 6d 3e bf 34 9f 3e 3f 2e fe bd df cc 08 be
       0.2317011 0.3109493 -0.124111645 -0.13359402
000380 66 eb 86 be 42 ba 42 3e 2f e1 89 be 4b 5f 34 3e
       -0.2635147 0.19016364 -0.26929614 0.17614476
000390 14 e9 af bd d8 61 21 be 22 c1 ce 3e bc 83 5f 3e
       -0.08589378 -0.1575998 0.40381724 0.21827596
0003a0 b9 7f c3 3e f2 20 37 3e 85 dc 30 3c ba c2 99 be
       0.38183382 0.17883661 0.010794763 -0.30031377
0003b0 c4 06 46 3c d5 f9 0c be 1a 2f e6 3d 10 08 e3 bd
       0.012086574 -0.13767178 0.11239453 -0.11085522
0003c0 7e 32 9d 3e 22 7f ca 3e 7e d9 22 3e 4b 80 2f 3e
       0.30702585 0.3955012 0.15903279 0.17138784
0003d0 ab 8f 28 be 80 1c 8b 3b 07 2a 1a 3d a0 1b 0d 3e
       -0.16461055 0.004245341 0.037637737 0.1378007
0003e0 e8 3a 98 be 3b 63 42 3e 6e 3f a3 3e e0 2c 1a bd
       -0.29732442 0.18983166 0.3188433 -0.037640452
0003f0 d2 1b 96 3e bf c9 f9 bc 61 f8 81 3e 3f 91 06 be
       0.293181 -0.030491708 0.2538481 -0.13141344

encoder.8.bias f4 [12]
000000 5c 27 9c be ca 75 bc bc 5a 71 f0 bc 0a 99 e6 bc
       -0.3049878 -0.023005385 -0.029350925 -0.028149147
000010 f3 f3 6f 3e 8d 4e 4b bd e4 da 60 be a0 6d 2a 3e
       0.23432903 -0.04963546 -0.219585 0.16643381
000020 27 02 fa 3d 7d 10 c5 3d 24 ad 22 bd 85 b3 17 3e
       0.12207442 0.096222855 -0.0397159 0.14814575

decoder.0.weight f4 [32, 12]
000000 a0 59 48 bd 6f 3f 48 3c af 4c 11 3e 82 c8 14 3e
       -0.048913598 0.012222155 0.14189409 0.14529613
000010 d6 d3 f8 3b 8e 96 15 be 13 47 8a 3e 16 4c 3f be
       0.007593612 -0.14608213 0.2700735 -0.18681368
000020 8c 53 84 3e fb 46 c3 be 58 16 7c bd 2a 84 38 be
       0.2584499 -0.3814009 -0.061544746 -0.18019167
000030 1a 05 5f 3e 8f a2 67 3d a2 cf 8c bd d2 3d 44 bd
       0.2177929 0.056551512 -0.0687554 -0.04791052
000040 dc e9 f7 3d 20 41 ab 3e 5f ee 45 3e d3 dc 27 be
       0.12105152 0.33448124 0.19329213 -0.16392832
000050 89 df c4 bc 94 02 0f 3e c9 af 38 be 4a a2 89 be
       -0.024032371 0.13965827 -0.18035807 -0.2688163
000060 59 4c 62 3e 92 a3 16 bd d6 65 fb 3d 86 ed 99 bd
       0.22099437 -0.036777087 0.12275283 -0.07516007
000070 81 dc 0d 3d b3 1b 75 be 92 33 53 be 58 9b f6 bc
       0.034634117 -0.23936348 -0.20625141 -0.03010337
000080 eb 3b 64 be ef 52 cd 3e ce 2b 8a bc 65 73 2b bc
       -0.22288482 0.40102336 -0.01686659 -0.010464524
000090 e5 66 30 3d 5e 32 20 3e 89 9b 76 3d f7 f2 c1 bd
       0.043066878 0.15644214 0.060206924 -0.0947017
0000a0 c3 e8 68 be 56 a0 83 3e 29 a6 50 3d e1 ae 72 bc
       -0.22745042 0.25708264 0.050939713 -0.014812202
0000b0 9e 0d 7a 3e 55 54 a8 be 2f 03 1a be 9b 5b d6 bd
       0.24419257 -0.3287684 -0.15040277 -0.10466691
0000c0 29 e6 85 be 4c 38 63 3e 2b b9 ce bd 8f 05 a1 3c
       -0.2615216 0.22189444 -0.10093912 0.01965597
0000d0 ce 3b 82 3e a6 b2 2e 3e 61 01 13 3e dc 4d ef ba
       0.25436252 0.17060336 0.14355995 -0.0018257457
0000e0 c0 a6 f5 bc 86 95 56 3e ef af ea bd 06 ca a8 3c
       -0.02998674 0.20955476 -0.11459338 0.020604145
0000f0 55 f6 9a be 97 72 8c 3e 30 36 6d 3e e5 4b 1a be
       -0.3026606 0.27431175 0.23165202 -0.15068014
000100 7a 38 1b bd ea 75 62 bd 5f 95 df 3d ee c4 db 3d
       -0.037895657 -0.055288233 0.10917162 0.10730921
000110 c7 1e e9 3d c7 a6 80 3e ec 15 5a bd 68 c5 10 be
       0.113828234 0.2512724 -0.053243563 -0.14137805
000120 05 e1 41 be b4 90 25 be 8f 0f 8a be c3 9d a5 be
       -0.18933494 -0.16168481 -0.26964995 -0.32346925
000130 f2 06 1d 3d 60 d2 80 bd 5a 40 8d 3c 08 29 12 be
       0.0383367 -0.06290126 0.0172426 -0.14273465
000140 8c 52 be 3d 1f c6 78 3e 8c 7e e2 3d f7 0c a8 3e
       0.09293088 0.24294327 0.11059293 0.3282239
000150 12 18 be bc 6b 4d a6 be 72 df c6 bd bf f8 61 3b
       -0.023204837 -0.3248094 -0.097105876 0.003448054
000160 65 35 6c be 47 60 64 be 13 4a ae bc 45 7c 26 3e
       -0.23067243 -0.22302352 -0.021275556 0.16258343
000170 30 74 af bc d2 e2 4b bb 6e 7e 31 3e 20 36 5c be
       -0.021417707 -0.0031110537 0.17333385 -0.21505022
000180 a0 15 da 3d ab bb 33 be 3d d6 7b bc bd 48 4b 3d
       0.10648656 -0.17552058 -0.015370903 0.049629916
000190 06 6e af be 6d 7b a1 3e fb 41 67 bd a7 f3 ab be
       -0.3426363 0.3153948 -0.05645941 -0.3358433
0001a0 d2 d2 88 3d 6a 2c 3c bd e7 e8 2a 3e 51 62 2e bc
       0.06680836 -0.045940794 0.16690408 -0.010643558
0001b0 b0 71 8e be f1 3b 34 3e d0 7b 57 3d dc 83 6b 3d
       -0.27821112 0.17600991 0.05260831 0.057498798
0001c0 f6 08 71 be 50 29 10 3e 31 74 69 bc 4b 47 ee 3d
       -0.23538575 0.1407826 -0.014248894 0.11634692
0001d0 00 09 8d 3e 6c 00 05 3e 3c 91 94 bc 1f c2 fa bd
       0.2754593 0.12988442 -0.01813566 -0.12244057
0001e0 11 91 6f be 8c cb 96 3e ff ce 5b 3e fe 93 80 bc
       -0.23395182 0.2945217 0.21465681 -0.015695568
0001f0 92 a1 77 3e 8c d5 1f be 15 08 27 3e 7c 4e 4f 3d
       0.24182728 -0.15608805 0.16311677 0.050611958
000200 fb ff 95 be 0e 1e e5 bd c2 ca 8b 3d 8d 37 98 bc
       -0.2929686 -0.11187373 0.06825782 -0.018581176
000210 ba 6e b2 be 33 05 63 bd 4e 0d 9f be 25 b8 93 bd
       -0.34850103 -0.05542488 -0.31064838 -0.07212857
000220 55 b2 c4 3d a9 88 9c bd 64 e5 95 3c 13 87 b2 bc
       0.09604327 -0.07643253 0.018297859 -0.021792924
000230 7b 82 98 bd e4 6e ad 3e 1f b8 cd bd 18 3e 59 bd
       -0.07446762 0.33873665 -0.10044884 -0.053037733
000240 89 8c 26 bd 0d 63 73 be 22 6a a3 bb c7 00 09 3e
       -0.04066137 -0.23768254 -0.0049870173 0.13379203
000250 3c a6 15 3e 58 67 dd bd 1d 84 22 3e 7f e9 81 be
       0.14614195 -0.10810727 0.1587071 -0.25373456
000260 06 88 1a 3b 93 21 75 3d 61 78 78 be 7d a1 14 be
       0.0023579611 0.059846472 -0.24264671 -0.14514728
000270 23 1b e3 bd 40 3d 8b 3d e6 b3 3f bc d6 43 84 3e
       -0.1108916 0.06798792 -0.011700606 0.25833005
000280 90 5d dd 3d 67 61 09 3d b7 32 99 3d 43 94 fa ba
       0.10808861 0.033540156 0.07480376 -0.0019117672
000290 28 7a 01 be a0 04 eb 3e b8 4f cf 3c a2 96 90 bc
       -0.12644255 0.45901966 0.025306568 -0.017649952
0002a0 32 74 36 bc 9b cb 69 be ea 75 94 be a9 51 dc bd
       -0.011136102 -0.22831576 -0.2899621 -0.10757763
0002b0 5f a1 79 3e 9b 20 87 bd c0 fa 9a 3e b9 c8 86 3a
       0.24377964 -0.06598016 0.30269432 0.0010283209
0002c0 84 88 35 be c7 e0 85 be d9 ab 9a 3d 09 68 5b 3c
       -0.17727858 -0.26148054 0.075523086 0.013391503
0002d0 02 22 cd bd 1c fc 3c be 3c 9c 87 3e 83 d3 b6 3b
       -0.10016252 -0.18455547 0.26486385 0.0055794134
0002e0 92 c5 68 be 21 64 50 3e 55 37 0b be aa bc 39 be
       -0.22731617 0.20350696 -0.13595326 -0.18138376
0002f0 b0 0f 6e 3c 4d ea 8a be c2 be ab bc 1b 72 67 be
       0.014530107 -0.27131882 -0.020964984 -0.22602122
000300 5e de 71 3e f6 20 c5 3c f6 3f 20 3d 7a 98 47 be
       0.23619983 0.024063569 0.039123498 -0.19491759
000310 42 79 03 3d dd 67 31 be 95 8d 39 be e9 10 3b 3e
       0.032098062 -0.17324777 -0.18120416 0.1826817
000320 0f 81 64 3e a6 6b 8e 3e 1e f8 79 3e 5d 4e 0b bd
       0.22314857 0.27816504 0.24411055 -0.03401028
000330 53 99 f6 3d 79 be da bb d3 cf d5 3d ae 82 6d bd
       0.12040963 -0.006675538 0.1044003 -0.057985954
000340 55 cf 05 3b 62 d2 4f 3e d8 eb 86 bd f3 fa 7b 3e
       0.002041777 0.20295098 -0.065879524 0.24607448
000350 55 60 ea bd 0b 54 28 be 28 e7 43 3d 3b 5b 7b 3e
       -0.11444155 -0.1643831 0.04782787 0.2454652
000360 d6 18 4c be 15 e9 84 be bb 2c a8 bd b1 d9 81 3c
       -0.19931349 -0.25959077 -0.08211657 0.015850874
000370 03 3a 18 be d3 8c 66 be ae 36 af bc b5 ce 9a be
       -0.1486588 -0.22514658 -0.021388378 -0.3023583
000380 d1 b9 13 3e fd 1c 3e be a7 05 1d 3e d6 7c 94 3d
       0.14426352 -0.18565746 0.15334187 0.07250373
000390 ce ab 9e be e3 0c 9a 3d 08 6a 82 bd c3 26 ac bd
       -0.30990452 0.07521989 -0.0636788 -0.08405831
0003a0 2c 5b 97 3e 76 40 1b bd 83 5d 45 3e 0c 3b 04 3e
       0.29561746 -0.03790327 0.19273953 0.1291315
0003b0 92 fb b6 bd e7 43 66 be f5 86 98 3d 46 55 f4 3d
       -0.08934702 -0.2248684 0.07447616 0.11930327
0003c0 02 e4 b8 bc ff f5 c3 bd 1f 70 c7 3d ee 3c 07 3e
       -0.02256966 -0.095684044 0.09738182 0.13206837
0003d0 0d 61 1e be 07 5b 3c be a4 a6 f6 3d 62 d7 ad be
       -0.1546671 -0.18394099 0.12043503 -0.33953387
0003e0 e8 60 97 bd b5 aa af be a9 96 33 be 23 e6 86 be
       -0.0739153 -0.34309927 -0.17537941 -0.26347455
0003f0 e7 c9 c2 3d 8c 47 18 bd a3 44 a3 bd cd 1f c7 3d
       0.09511166 -0.037177607 -0.07972076 0.097228624

decoder.0.bias f4 [32]
000000 34 0a bc bc ec e7 82 be 57 36 e5 be f0 67 c4 3e
       -0.022954084 -0.25567567 -0.4476802 0.38360548
000010 bb 7e d0 be 6a cf 67 be 75 2a 59 3e 30 37 73 be
       -0.40721688 -0.22637716 0.21207602 -0.23751521
000020 c8 f7 83 3e 8f fd 82 be 9d 21 82 be 00 44 9a 3c
       0.2577498 -0.25584075 -0.2541627 0.018831253
000030 2b e2 b3 3d cc 3d ba be 0e 51 04 3f 0f 3f e7 bd
       0.087833725 -0.36375272 0.5168618 -0.11291324
000040 c9 c1 ee be ae e1 6d be 4f d2 52 be e3 d2 a4 3d
       -0.4663222 -0.23230621 -0.20588039 0.08048036
000050 48 5e b3 bc 7a 08 e5 3d c3 ac 95 bd 90 eb b1 3c
       -0.021895543 0.111832574 -0.07308342 0.02171877
000060 48 55 dc 3d ae 1f 08 3e 9e f5 2b 3d 3f 96 c2 be
       0.107584536 0.13293335 0.041982286 -0.38005254
000070 44 43 20 be 33 4c 3e be d0 6d 05 be fe 5f c0 bd
       -0.1565066 -0.18583755 -0.13030171 -0.09393309

decoder.3.weight f4 [64, 32]
000000 0a 74 d3 bd d3 72 77 3d 87 10 70 3e 7f 24 0d be
       -0.10324867 0.06041224 0.23443805 -0.13783453
000010 86 b9 22 3d bc d0 c2 3c a6 1f c0 3c b5 77 60 3c
       0.03972771 0.023781173 0.023452591 0.013700415
000020 df ab ef 3d 78 9c 25 be e0 d7 05 3d 73 a8 ba 3d
       0.11702704 -0.1617297 0.032676578 0.091141604
000030 cc 44 88 bd 9e bd cd 3d af 32 16 be fd 07 8b bc
       -0.06653747 0.10045932 -0.14667772 -0.016971583
000040 24 43 8d bd a1 20 9f 3d e9 6f f6 bd c3 5e 68 bc
       -0.06897572 0.07769895 -0.12033064 -0.014182749
000050 d2 35 20 3b 5d 6a a0 bd cc 5d 07 3e 81 db 52 bd
       0.0024446142 -0.07832787 0.13219374 -0.051478866
000060 97 19 10 3e 1e a9 9a bd 6a ba 0e be 66 ab 8e 3d
       0.14072262 -0.07551788 -0.13938299 0.069662854
000070 22 af 2b bd 76 4b 8c 3e fb 4e 63 be 00 23 01 be
       -0.041915067 0.27401322 -0.22198097 -0.12611008
000080 c3 55 1e 3d bb c5 f7 3c 67 40 5e be 84 65 3a 3e
       0.038656007 0.030245652 -0.21704255 0.18202788
000090 32 c6 92 3c bf e2 97 3d a6 a1 51 be 4c 73 d0 bc
       0.017916773 0.07416295 -0.2047182 -0.025445603
0000a0 6e 47 0b 3e 1c 73 a7 3d 7e 52 56 3d af ba e9 bd
       0.13601467 0.08176252 0.052324764 -0.1141256
0000b0 63 c3 a1 bc 30 f2 73 bd 48 c5 10 be bb ab 1e 3d
       -0.019746488 -0.05955714 -0.14137757 0.038737994
0000c0 9c 35 51 3d d3 1d f1 bd a5 b9 20 3c 8c 83 43 3c
       0.051076517 -0.11773267 0.009809886 0.011933219
0000d0 55 27 92 3d a2 62 2d bd bf 7b f4 bc ec c7 1a be
       0.07136408 -0.04233039 -0.029844163 -0.15115327
0000e0 cf b9 e7 bd 55 ff 8d bd 9f 6a d9 3d 7c 85 54 3e
       -0.11314737 -0.06933466 0.106160395 0.20754045
0000f0 5b f6 c3 bc 61 21 bc be b2 91 9d bd 52 c2 52 be
       -0.023921182 -0.36744216 -0.07693805 -0.2058194
000100 4d 54 07 be b9 59 c1 bd db 6f a9 bc 9d 1f 35 bd
       -0.13215752 -0.09440941 -0.02068322 -0.044219602
000110 a5 10 d7 bd c8 55 95 3d 2a e6 44 3e 64 3b 2a 3b
       -0.105012216 0.07291752 0.19228426 0.002597534
000120 52 66 17 be 54 1e b1 3d b7 c6 19 3e 49 0f 98 bd
       -0.14785126 0.08648363 0.1501721 -0.074247904
000130 e5 9e 3d be fa 46 13 3d e5 a5 48 bd a9 5d 85 bb
       -0.18517645 0.03595636 -0.048986334 -0.004070003
000140 de 0c 2a 3b 74 03 cc 3d 87 18 1d bd 22 68 75 3e
       0.002594761 0.09961596 -0.03835347 0.23965505
000150 61 86 29 be 29 1b c2 bc 77 52 20 3e 15 3c 0d be
       -0.16555168 -0.023694592 0.15656458 -0.1379245
000160 95 80 26 3d d8 da 20 be 2a 47 fd 3c 50 42 fa bc
       0.04064997 -0.15708482 0.030917723 -0.030549198
000170 72 28 b1 bc 6b 0d bb 3d c6 67 ae 3c 37 f2 da 3a
       -0.021625731 0.09133419 0.021289717 0.0016704266
000180 ce 80 08 3e 86 93 b0 3d 0f f4 35 bd 21 14 13 bd
       0.13330385 0.08621888 -0.044422206 -0.03590787
000190 68 39 32 bd 21 fc 2b 3e a1 2f 9d 3d 41 f6 1e be
       -0.043511778 0.16795398 0.076751 -0.15523626
0001a0 dd eb b5 3c 54 b9 9c 3d 2a 76 52 bd 6e 52 9f 3c
       0.022207195 0.07652536 -0.05138222 0.019448485
0001b0 a2 57 46 bd b5 79 37 bc 7b 6c 3e be ee 59 99 bd
       -0.048423417 -0.011198451 -0.1859607 -0.07487856
0001c0 93 af f6 3c b6 ee 02 3e ad ad cc 3d b4 7b 6f 3d
       0.030113017 0.12786373 0.099940635 0.058467582
0001d0 fb 07 3e be 13 22 a3 3b a1 2e d1 3c 4c 50 a4 bb
       -0.18557732 0.004978427 0.02553493 -0.005014455
0001e0 af e7 02 3e ea c6 25 bd 48 1d 0f be 50 f0 77 be
       0.12783693 -0.040472902 -0.13976014 -0.24212766
0001f0 7a d4 7f 3d e0 f3 19 be 48 be 94 bd 71 06 94 bd
       0.062458493 -0.15034437 -0.07262856 -0.07227791
000200 30 64 89 3d f2 d0 16 bc 2a f8 f2 bd 6a 53 e4 3d
       0.067085624 -0.00920509 -0.1186374 0.111487225
000210 84 9e de bc 6a 23 77 3d 17 1c 8d be 93 f5 35 bd
       -0.027175196 0.060336508 -0.27560493 -0.04442365
000220 25 ba 90 bc 19 03 f7 bc 27 63 6c bd ce 4e b7 bc
       -0.017666886 -0.030152844 -0.057711747 -0.022376444
000230 5a ab ee 3d 7c a9 39 be 0a aa 97 bd ab 50 53 3e
       0.116537765 -0.1813106 -0.07405479 0.20636241
000240 72 1f 55 3b 50 76 21 be 5c 96 6a 3d 8d 87 ff bd
       0.0032519964 -0.15767789 0.0572723 -0.12477026
000250 a6 aa 8c 3d 29 49 71 3d 2d 6b 56 be 75 36 18 3d
       0.06868486 0.05890766 -0.20939322 0.03716131
000260 81 7a 1e be af fb 08 3d 98 d7 07 bd 77 e4 bc 3d
       -0.15476419 0.03344315 -0.03316459 0.09223264
000270 3f 92 c9 3d f4 4c 8b be 97 2a d4 bc d7 8e 88 be
       0.09842347 -0.27207148 -0.025899215 -0.26671478
000280 83 56 49 3e c1 be b9 bd 13 e3 36 be e2 6c 17 be
       0.19661908 -0.090695865 -0.1786006 -0.14787629
000290 ce 53 06 be 2b af ba be f4 b4 04 3e eb 7f f0 bd
       -0.13117906 -0.36461768 0.12959653 -0.117431484
0002a0 3f 71 ae 3d f9 82 ad bd 88 8f 88 be 91 11 a6 3d
       0.08517694 -0.08472247 -0.26672006 0.08108819
0002b0 35 69 a9 3d d1 1f fa 3d c1 4d f5 3b 07 7f 1c be
       0.0827202 0.122131 0.0074860756 -0.15282832
0002c0 90 ce 0c be f2 63 10 3d a8 3d 83 bc 4f 5b 37 3d
       -0.13750672 0.035251565 -0.01602061 0.044764813
0002d0 83 10 46 3d 1e 87 58 3e 3c f8 04 3e c2 20 ba 3b
       0.04835559 0.21145293 0.12985319 0.0056801746
0002e0 73 cf 52 be 62 71 25 3e 0e 7b 0c 3c dc b4 89 bd
       -0.20586948 0.16156533 0.00857426 -0.06723949
0002f0 54 83 48 be cf 26 2a bd 8a d1 40 3d 74 5f 13 3d
       -0.19581348 -0.041540917 0.047074832 0.035979703
000300 22 79 69 bd e4 f2 1a be 92 c2 d8 3d 6b 2f ff bd
       -0.057000287 -0.15131718 0.10583986 -0.12460216
000310 c0 bf aa bd 57 90 05 3e 5d ad cb bd e7 51 20 3e
       -0.08337355 0.13043343 -0.09945176 0.15656243
000320 6a f0 14 3e 00 1b db 3d 4d 98 a1 3d b0 39 f3 bd
       0.14544836 0.10698509 0.07890377 -0.118762374
000330 dc 57 4c be d3 76 91 bd 85 76 67 be 05 a8 1c bd
       -0.1995539 -0.07102742 -0.22603805 -0.038246173
000340 db 66 02 3c e0 cb 8d bd 07 d3 88 3d cf 0a 26 be
       0.007959093 -0.06923652 0.06680875 -0.1621506
000350 6b 5b cf bd 0f b8 1c 3e b3 34 9c 3c d2 79 28 be
       -0.101248585 0.15304588 0.019068098 -0.16452721
000360 e3 08 04 be d1 7d 83 bc 4b fd ef 3c 36 d8 47 3e
       -0.12894015 -0.016051205 0.029295584 0.19516072
000370 cd 62 de bb 95 ad 22 3e cf f9 38 be 12 9f 3b bd
       -0.0067866803 0.15886529 -0.18064044 -0.045806
000380 8f 62 c1 3d c9 98 2a 3d bd 2d 1a 3d b9 b7 56 3e
       0.09442627 0.041649614 0.037641276 0.20968522
000390 b7 43 28 be 18 ee 84 3d 62 8b 04 3e d8 c9 27 3d
       -0.16432081 0.06490725 0.12943795 0.040963978
0003a0 d2 bd 12 be f6 32 24 3c f8 9f d0 be 53 9d a4 bd
       -0.14330223 0.010021916 -0.40747046 -0.0803782
0003b0 7d c3 69 bc 3a ce cf be 14 d7 92 3d 0e 49 bf bc
       -0.014267799 -0.40587026 0.07169929 -0.023350265
0003c0 c1 17 65 bc b7 6d b5 bd 42 bc 27 bd 07 aa f0 bd
       -0.013982714 -0.08858817 -0.04095102 -0.1175118
0003d0 9f c4 88 bd 24 ec 2e bd 6c 1d b7 be c6 a0 d6 3d
       -0.066781275 -0.04270567 -0.35764635 0.10479884
0003e0 83 d9 ae 3d f0 66 79 3d ab 64 43 3d 30 82 3c be
       0.08537581 0.060889184 0.047703426 -0.18409038
0003f0 4b 0b 19 3e 34 37 3f be 2c 77 90 bd 8f a8 38 3e
       0.14945714 -0.18673402 -0.0705398 0.1803305
